Neural Network Tools for STM32AI v1.6.0 (STM.ai v7.3.0-RC5)
Created date          : 2023-02-26 13:25:50
Parameters            : generate --name gesture_recognition -m C:/Users/danie/Desktop/EIB_Semester_7_WS22/Projekt_Arbeit/Python/AI_Python/data/models/model_2023-02-26_13-01-28.tflite --type tflite --compression none --verbosity 1 --workspace C:\Users\danie\AppData\Local\Temp\mxAI_workspace40067515351610013674317740722121534 --output C:\Users\danie\.stm32cubemx\network_output --allocate-inputs --allocate-outputs

Exec/report summary (generate)
-----------------------------------------------------------------------------------------------------------------------------------------------
model file         :   C:\Users\danie\Desktop\EIB_Semester_7_WS22\Projekt_Arbeit\Python\AI_Python\data\models\model_2023-02-26_13-01-28.tflite
type               :   tflite                                                                                                                 
c_name             :   gesture_recognition                                                                                                    
compression        :   none                                                                                                                   
options            :   allocate-inputs, allocate-outputs                                                                                      
optimization       :   balanced                                                                                                               
target/series      :   generic                                                                                                                
workspace dir      :   C:\Users\danie\AppData\Local\Temp\mxAI_workspace40067515351610013674317740722121534                                    
output dir         :   C:\Users\danie\.stm32cubemx\network_output                                                                             
model_fmt          :   float                                                                                                                  
model_name         :   model_20230226_130128                                                                                                  
model_hash         :   d8ed1d63ec43caa60ad87c9e4959ccec                                                                                       
params #           :   101,258 items (395.54 KiB)                                                                                             
-----------------------------------------------------------------------------------------------------------------------------------------------
input 1/1          :   'dense_input' (domain:activations/**default**)                                                                         
                   :   1506 items, 5.88 KiB, ai_float, float, (1,1,1,1506)                                                                    
output 1/1         :   'nl_3' (domain:activations/**default**)                                                                                
                   :   10 items, 40 B, ai_float, float, (1,1,1,10)                                                                            
macc               :   101,536                                                                                                                
weights (ro)       :   405,032 B (395.54 KiB) (1 segment)                                                                                     
activations (rw)   :   6,280 B (6.13 KiB) (1 segment) *                                                                                       
ram (total)        :   6,280 B (6.13 KiB) = 6,280 + 0 + 0                                                                                     
-----------------------------------------------------------------------------------------------------------------------------------------------
(*) 'input'/'output' buffers can be used from the activations buffer

Model name - model_20230226_130128 ['dense_input'] ['nl_3']
---------------------------------------------------------------------------------------------------------------------------------------------------------------------------
id   layer (type,original)                     oshape         param/size       macc     connected to   |   c_size              c_macc             c_type                  
---------------------------------------------------------------------------------------------------------------------------------------------------------------------------
0    dense_input (Input, )                     [b:1,c:1506]                                            |   +385,792(+100.0%)   +96,512(+100.0%)   dense_of32/nl_of32[0, 1]
     dense_0 (Dense, FULLY_CONNECTED)          [b:1,c:64]     96,448/385,792   96,448   dense_input    |   -385,792(-100.0%)   -96,448(-100.0%)  
     nl_0_nl (Nonlinearity, FULLY_CONNECTED)   [b:1,c:64]                      64       dense_0        |                       -64(-100.0%)      
---------------------------------------------------------------------------------------------------------------------------------------------------------------------------
1    dense_1 (Dense, FULLY_CONNECTED)          [b:1,c:64]     4,160/16,640     4,160    nl_0_nl        |                       +64(+1.5%)         dense_of32/nl_of32[2, 3]
     nl_1_nl (Nonlinearity, FULLY_CONNECTED)   [b:1,c:64]                      64       dense_1        |                       -64(-100.0%)      
---------------------------------------------------------------------------------------------------------------------------------------------------------------------------
2    dense_2 (Dense, FULLY_CONNECTED)          [b:1,c:10]     650/2,600        650      nl_1_nl        |                                          dense_of32[4]           
---------------------------------------------------------------------------------------------------------------------------------------------------------------------------
3    nl_3 (Nonlinearity, SOFTMAX)              [b:1,c:10]                      150      dense_2        |                                          nl_of32[o][5]           
---------------------------------------------------------------------------------------------------------------------------------------------------------------------------
model/c-model: macc=101,536/101,536  weights=405,032/405,032  activations=--/6,280 io=--/0



Generated C-graph summary
------------------------------------------------------------------------------------------------------------------------
model name            : model_20230226_130128
c-name                : gesture_recognition
c-node #              : 6
c-array #             : 13
activations size      : 6280 (1 segment)
weights size          : 405032 (1 segment)
macc                  : 101536
inputs                : ['dense_input_output']
outputs               : ['nl_3_output']

C-Arrays (13)
-----------------------------------------------------------------------------------------------------
c_id   name (*_array)       item/size      domain/mem-pool           c-type        fmt       comment
-----------------------------------------------------------------------------------------------------
0      dense_1_bias         64/256         weights/weights           const float   float32          
1      dense_input_output   1506/6024      activations/**default**   float         float32   /input 
2      dense_0_output       64/256         activations/**default**   float         float32          
3      dense_2_weights      640/2560       weights/weights           const float   float32          
4      nl_0_nl_output       64/256         activations/**default**   float         float32          
5      dense_1_output       64/256         activations/**default**   float         float32          
6      dense_2_bias         10/40          weights/weights           const float   float32          
7      nl_1_nl_output       64/256         activations/**default**   float         float32          
8      dense_2_output       10/40          activations/**default**   float         float32          
9      nl_3_output          10/40          activations/**default**   float         float32   /output
10     dense_0_weights      96384/385536   weights/weights           const float   float32          
11     dense_0_bias         64/256         weights/weights           const float   float32          
12     dense_1_weights      4096/16384     weights/weights           const float   float32          
-----------------------------------------------------------------------------------------------------

C-Layers (6)
------------------------------------------------------------------------------------------------------
c_id   name (*_layer)   id   layer_type   macc    rom      tensors                 shape (array id)  
------------------------------------------------------------------------------------------------------
0      dense_0          0    dense        96448   385792   I: dense_input_output   (1,1,1,1506) (1)  
                                                           W: dense_0_weights      (1506,1,1,64) (10)
                                                           W: dense_0_bias         (1,1,1,64) (11)   
                                                           O: dense_0_output       (1,1,1,64) (2)    
------------------------------------------------------------------------------------------------------
1      nl_0_nl          0    nl           64      0        I: dense_0_output       (1,1,1,64) (2)    
                                                           O: nl_0_nl_output       (1,1,1,64) (4)    
------------------------------------------------------------------------------------------------------
2      dense_1          1    dense        4160    16640    I: nl_0_nl_output       (1,1,1,64) (4)    
                                                           W: dense_1_weights      (64,1,1,64) (12)  
                                                           W: dense_1_bias         (1,1,1,64) (0)    
                                                           O: dense_1_output       (1,1,1,64) (5)    
------------------------------------------------------------------------------------------------------
3      nl_1_nl          1    nl           64      0        I: dense_1_output       (1,1,1,64) (5)    
                                                           O: nl_1_nl_output       (1,1,1,64) (7)    
------------------------------------------------------------------------------------------------------
4      dense_2          2    dense        650     2600     I: nl_1_nl_output       (1,1,1,64) (7)    
                                                           W: dense_2_weights      (64,1,1,10) (3)   
                                                           W: dense_2_bias         (1,1,1,10) (6)    
                                                           O: dense_2_output       (1,1,1,10) (8)    
------------------------------------------------------------------------------------------------------
5      nl_3             3    nl           150     0        I: dense_2_output       (1,1,1,10) (8)    
                                                           O: nl_3_output          (1,1,1,10) (9)    
------------------------------------------------------------------------------------------------------



Number of operations per c-layer
------------------------------------------------------------------------------------------
c_id    m_id   name (type)       #op (type)                       #param (sparsity)      
------------------------------------------------------------------------------------------
0       0      dense_0 (dense)            96,448 (smul_f32_f32)           96,448 (0.0001)
1       0      nl_0_nl (nl)                   64 (op_f32_f32)                            
2       1      dense_1 (dense)             4,160 (smul_f32_f32)            4,160 (0.0000)
3       1      nl_1_nl (nl)                   64 (op_f32_f32)                            
4       2      dense_2 (dense)               650 (smul_f32_f32)              650 (0.0000)
5       3      nl_3 (nl)                     150 (op_f32_f32)                            
------------------------------------------------------------------------------------------
total                                    101,536                         101,258 (0.0001)

  Number of operation types
  ---------------------------------------------
  smul_f32_f32             101,258       99.7%
  op_f32_f32                   278        0.3%

Complexity report (model)
--------------------------------------------------------------------------------
m_id   name          c_macc                    c_rom                     c_id  
--------------------------------------------------------------------------------
0      dense_input   ||||||||||||||||  95.1%   ||||||||||||||||  95.2%   [0, 1]
1      dense_1       |                  4.2%   |                  4.1%   [2, 3]
2      dense_2       |                  0.6%   |                  0.6%   [4]   
3      nl_3          |                  0.1%   |                  0.0%   [5]   
--------------------------------------------------------------------------------
macc=101,536 weights=405,032 act=6,280 ram_io=0

Generated files (7)
--------------------------------------------------------------------------------------
C:\Users\danie\.stm32cubemx\network_output\gesture_recognition_config.h
C:\Users\danie\.stm32cubemx\network_output\gesture_recognition.h
C:\Users\danie\.stm32cubemx\network_output\gesture_recognition.c
C:\Users\danie\.stm32cubemx\network_output\gesture_recognition_data_params.h
C:\Users\danie\.stm32cubemx\network_output\gesture_recognition_data_params.c
C:\Users\danie\.stm32cubemx\network_output\gesture_recognition_data.h
C:\Users\danie\.stm32cubemx\network_output\gesture_recognition_data.c
